…
{'block_strides': [1, 2, 2, 0.5, 0.5], 'num_filters': 16, 'target_injection_mode': 6, 'output_merge_type': 'D', 'n': 4}
Building Generator: 22 layer resnet
Model Generator Name model_G
ResNet22v3D
[<tf.Tensor 'lambda_input:0' shape=(?, 32, 32, 3) dtype=float32>] [<tf.Tensor 'dense_2/BiasAdd:0' shape=(?, 1) dtype=float32>]
Generator Summary
__________________________________________________________________________________________________
Layer (type)                    Output Shape         Param #     Connected to                     
==================================================================================================
input_1 (InputLayer)            (None, 32, 32, 3)    0                                            
__________________________________________________________________________________________________
input_2 (InputLayer)            (None, 10)           0                                            
__________________________________________________________________________________________________
outer_product2d (OuterProduct2D (None, 32, 32, 30)   0           input_1[0][0]                    
                                                                 input_2[0][0]                    
__________________________________________________________________________________________________
conv2d (Conv2D)                 (None, 32, 32, 16)   12016       outer_product2d[0][0]            
__________________________________________________________________________________________________
batch_normalization (BatchNorma (None, 32, 32, 16)   64          conv2d[0][0]                     
__________________________________________________________________________________________________
activation (Activation)         (None, 32, 32, 16)   0           batch_normalization[0][0]        
__________________________________________________________________________________________________
outer_product2d_1 (OuterProduct (None, 32, 32, 160)  0           activation[0][0]                 
                                                                 input_2[0][0]                    
__________________________________________________________________________________________________
conv2d_1 (Conv2D)               (None, 32, 32, 16)   23056       outer_product2d_1[0][0]          
__________________________________________________________________________________________________
batch_normalization_1 (BatchNor (None, 32, 32, 16)   64          conv2d_1[0][0]                   
__________________________________________________________________________________________________
activation_1 (Activation)       (None, 32, 32, 16)   0           batch_normalization_1[0][0]      
__________________________________________________________________________________________________
outer_product2d_2 (OuterProduct (None, 32, 32, 160)  0           activation_1[0][0]               
                                                                 input_2[0][0]                    
__________________________________________________________________________________________________
conv2d_2 (Conv2D)               (None, 32, 32, 16)   23056       outer_product2d_2[0][0]          
__________________________________________________________________________________________________
batch_normalization_2 (BatchNor (None, 32, 32, 16)   64          conv2d_2[0][0]                   
__________________________________________________________________________________________________
outer_product2d_3 (OuterProduct (None, 32, 32, 160)  0           batch_normalization_2[0][0]      
                                                                 input_2[0][0]                    
__________________________________________________________________________________________________
conv2d_3 (Conv2D)               (None, 32, 32, 16)   23056       outer_product2d_3[0][0]          
__________________________________________________________________________________________________
batch_normalization_3 (BatchNor (None, 32, 32, 16)   64          conv2d_3[0][0]                   
__________________________________________________________________________________________________
add (Add)                       (None, 32, 32, 16)   0           activation[0][0]                 
                                                                 batch_normalization_2[0][0]      
__________________________________________________________________________________________________
outer_product2d_4 (OuterProduct (None, 32, 32, 160)  0           batch_normalization_3[0][0]      
                                                                 input_2[0][0]                    
__________________________________________________________________________________________________
activation_2 (Activation)       (None, 32, 32, 16)   0           add[0][0]                        
__________________________________________________________________________________________________
conv2d_4 (Conv2D)               (None, 32, 32, 16)   23056       outer_product2d_4[0][0]          
__________________________________________________________________________________________________
add_1 (Add)                     (None, 32, 32, 16)   0           activation_2[0][0]               
                                                                 batch_normalization_3[0][0]      
__________________________________________________________________________________________________
batch_normalization_4 (BatchNor (None, 32, 32, 16)   64          conv2d_4[0][0]                   
__________________________________________________________________________________________________
activation_3 (Activation)       (None, 32, 32, 16)   0           add_1[0][0]                      
__________________________________________________________________________________________________
outer_product2d_5 (OuterProduct (None, 32, 32, 160)  0           batch_normalization_4[0][0]      
                                                                 input_2[0][0]                    
__________________________________________________________________________________________________
add_2 (Add)                     (None, 32, 32, 16)   0           activation_3[0][0]               
                                                                 batch_normalization_4[0][0]      
__________________________________________________________________________________________________
conv2d_5 (Conv2D)               (None, 32, 32, 16)   23056       outer_product2d_5[0][0]          
__________________________________________________________________________________________________
activation_4 (Activation)       (None, 32, 32, 16)   0           add_2[0][0]                      
__________________________________________________________________________________________________
batch_normalization_5 (BatchNor (None, 32, 32, 16)   64          conv2d_5[0][0]                   
__________________________________________________________________________________________________
add_3 (Add)                     (None, 32, 32, 16)   0           activation_4[0][0]               
                                                                 batch_normalization_5[0][0]      
__________________________________________________________________________________________________
activation_5 (Activation)       (None, 32, 32, 16)   0           add_3[0][0]                      
__________________________________________________________________________________________________
outer_product2d_6 (OuterProduct (None, 32, 32, 160)  0           activation_5[0][0]               
                                                                 input_2[0][0]                    
__________________________________________________________________________________________________
conv2d_6 (Conv2D)               (None, 16, 16, 32)   46112       outer_product2d_6[0][0]          
__________________________________________________________________________________________________
batch_normalization_6 (BatchNor (None, 16, 16, 32)   128         conv2d_6[0][0]                   
__________________________________________________________________________________________________
activation_6 (Activation)       (None, 16, 16, 32)   0           batch_normalization_6[0][0]      
__________________________________________________________________________________________________
outer_product2d_7 (OuterProduct (None, 16, 16, 320)  0           activation_6[0][0]               
                                                                 input_2[0][0]                    
__________________________________________________________________________________________________
conv2d_8 (Conv2D)               (None, 16, 16, 32)   92192       outer_product2d_7[0][0]          
__________________________________________________________________________________________________
batch_normalization_8 (BatchNor (None, 16, 16, 32)   128         conv2d_8[0][0]                   
__________________________________________________________________________________________________
outer_product2d_8 (OuterProduct (None, 16, 16, 320)  0           batch_normalization_8[0][0]      
                                                                 input_2[0][0]                    
__________________________________________________________________________________________________
conv2d_7 (Conv2D)               (None, 16, 16, 32)   544         activation_5[0][0]               
__________________________________________________________________________________________________
conv2d_9 (Conv2D)               (None, 16, 16, 32)   92192       outer_product2d_8[0][0]          
__________________________________________________________________________________________________
batch_normalization_7 (BatchNor (None, 16, 16, 32)   128         conv2d_7[0][0]                   
__________________________________________________________________________________________________
batch_normalization_9 (BatchNor (None, 16, 16, 32)   128         conv2d_9[0][0]                   
__________________________________________________________________________________________________
add_4 (Add)                     (None, 16, 16, 32)   0           batch_normalization_7[0][0]      
                                                                 batch_normalization_8[0][0]      
__________________________________________________________________________________________________
outer_product2d_9 (OuterProduct (None, 16, 16, 320)  0           batch_normalization_9[0][0]      
                                                                 input_2[0][0]                    
__________________________________________________________________________________________________
activation_7 (Activation)       (None, 16, 16, 32)   0           add_4[0][0]                      
__________________________________________________________________________________________________
conv2d_10 (Conv2D)              (None, 16, 16, 32)   92192       outer_product2d_9[0][0]          
__________________________________________________________________________________________________
add_5 (Add)                     (None, 16, 16, 32)   0           activation_7[0][0]               
                                                                 batch_normalization_9[0][0]      
__________________________________________________________________________________________________
batch_normalization_10 (BatchNo (None, 16, 16, 32)   128         conv2d_10[0][0]                  
__________________________________________________________________________________________________
activation_8 (Activation)       (None, 16, 16, 32)   0           add_5[0][0]                      
__________________________________________________________________________________________________
outer_product2d_10 (OuterProduc (None, 16, 16, 320)  0           batch_normalization_10[0][0]     
                                                                 input_2[0][0]                    
__________________________________________________________________________________________________
add_6 (Add)                     (None, 16, 16, 32)   0           activation_8[0][0]               
                                                                 batch_normalization_10[0][0]     
__________________________________________________________________________________________________
conv2d_11 (Conv2D)              (None, 16, 16, 32)   92192       outer_product2d_10[0][0]         
__________________________________________________________________________________________________
activation_9 (Activation)       (None, 16, 16, 32)   0           add_6[0][0]                      
__________________________________________________________________________________________________
batch_normalization_11 (BatchNo (None, 16, 16, 32)   128         conv2d_11[0][0]                  
__________________________________________________________________________________________________
add_7 (Add)                     (None, 16, 16, 32)   0           activation_9[0][0]               
                                                                 batch_normalization_11[0][0]     
__________________________________________________________________________________________________
activation_10 (Activation)      (None, 16, 16, 32)   0           add_7[0][0]                      
__________________________________________________________________________________________________
outer_product2d_11 (OuterProduc (None, 16, 16, 320)  0           activation_10[0][0]              
                                                                 input_2[0][0]                    
__________________________________________________________________________________________________
conv2d_12 (Conv2D)              (None, 8, 8, 64)     184384      outer_product2d_11[0][0]         
__________________________________________________________________________________________________
batch_normalization_12 (BatchNo (None, 8, 8, 64)     256         conv2d_12[0][0]                  
__________________________________________________________________________________________________
activation_11 (Activation)      (None, 8, 8, 64)     0           batch_normalization_12[0][0]     
__________________________________________________________________________________________________
outer_product2d_12 (OuterProduc (None, 8, 8, 640)    0           activation_11[0][0]              
                                                                 input_2[0][0]                    
__________________________________________________________________________________________________
conv2d_14 (Conv2D)              (None, 8, 8, 64)     368704      outer_product2d_12[0][0]         
__________________________________________________________________________________________________
batch_normalization_14 (BatchNo (None, 8, 8, 64)     256         conv2d_14[0][0]                  
__________________________________________________________________________________________________
outer_product2d_13 (OuterProduc (None, 8, 8, 640)    0           batch_normalization_14[0][0]     
                                                                 input_2[0][0]                    
__________________________________________________________________________________________________
conv2d_13 (Conv2D)              (None, 8, 8, 64)     2112        activation_10[0][0]              
__________________________________________________________________________________________________
conv2d_15 (Conv2D)              (None, 8, 8, 64)     368704      outer_product2d_13[0][0]         
__________________________________________________________________________________________________
batch_normalization_13 (BatchNo (None, 8, 8, 64)     256         conv2d_13[0][0]                  
__________________________________________________________________________________________________
batch_normalization_15 (BatchNo (None, 8, 8, 64)     256         conv2d_15[0][0]                  
__________________________________________________________________________________________________
add_8 (Add)                     (None, 8, 8, 64)     0           batch_normalization_13[0][0]     
                                                                 batch_normalization_14[0][0]     
__________________________________________________________________________________________________
outer_product2d_14 (OuterProduc (None, 8, 8, 640)    0           batch_normalization_15[0][0]     
                                                                 input_2[0][0]                    
__________________________________________________________________________________________________
activation_12 (Activation)      (None, 8, 8, 64)     0           add_8[0][0]                      
__________________________________________________________________________________________________
conv2d_16 (Conv2D)              (None, 8, 8, 64)     368704      outer_product2d_14[0][0]         
__________________________________________________________________________________________________
add_9 (Add)                     (None, 8, 8, 64)     0           activation_12[0][0]              
                                                                 batch_normalization_15[0][0]     
__________________________________________________________________________________________________
batch_normalization_16 (BatchNo (None, 8, 8, 64)     256         conv2d_16[0][0]                  
__________________________________________________________________________________________________
activation_13 (Activation)      (None, 8, 8, 64)     0           add_9[0][0]                      
__________________________________________________________________________________________________
outer_product2d_15 (OuterProduc (None, 8, 8, 640)    0           batch_normalization_16[0][0]     
                                                                 input_2[0][0]                    
__________________________________________________________________________________________________
add_10 (Add)                    (None, 8, 8, 64)     0           activation_13[0][0]              
                                                                 batch_normalization_16[0][0]     
__________________________________________________________________________________________________
conv2d_17 (Conv2D)              (None, 8, 8, 64)     368704      outer_product2d_15[0][0]         
__________________________________________________________________________________________________
activation_14 (Activation)      (None, 8, 8, 64)     0           add_10[0][0]                     
__________________________________________________________________________________________________
batch_normalization_17 (BatchNo (None, 8, 8, 64)     256         conv2d_17[0][0]                  
__________________________________________________________________________________________________
add_11 (Add)                    (None, 8, 8, 64)     0           activation_14[0][0]              
                                                                 batch_normalization_17[0][0]     
__________________________________________________________________________________________________
activation_15 (Activation)      (None, 8, 8, 64)     0           add_11[0][0]                     
__________________________________________________________________________________________________
outer_product2d_16 (OuterProduc (None, 8, 8, 640)    0           activation_15[0][0]              
                                                                 input_2[0][0]                    
__________________________________________________________________________________________________
conv2d_transpose (Conv2DTranspo (None, 16, 16, 32)   184352      outer_product2d_16[0][0]         
__________________________________________________________________________________________________
batch_normalization_18 (BatchNo (None, 16, 16, 32)   128         conv2d_transpose[0][0]           
__________________________________________________________________________________________________
activation_16 (Activation)      (None, 16, 16, 32)   0           batch_normalization_18[0][0]     
__________________________________________________________________________________________________
outer_product2d_17 (OuterProduc (None, 16, 16, 320)  0           activation_16[0][0]              
                                                                 input_2[0][0]                    
__________________________________________________________________________________________________
conv2d_18 (Conv2D)              (None, 16, 16, 32)   92192       outer_product2d_17[0][0]         
__________________________________________________________________________________________________
batch_normalization_20 (BatchNo (None, 16, 16, 32)   128         conv2d_18[0][0]                  
__________________________________________________________________________________________________
outer_product2d_18 (OuterProduc (None, 16, 16, 320)  0           batch_normalization_20[0][0]     
                                                                 input_2[0][0]                    
__________________________________________________________________________________________________
conv2d_transpose_1 (Conv2DTrans (None, 16, 16, 32)   2080        activation_15[0][0]              
__________________________________________________________________________________________________
conv2d_19 (Conv2D)              (None, 16, 16, 32)   92192       outer_product2d_18[0][0]         
__________________________________________________________________________________________________
batch_normalization_19 (BatchNo (None, 16, 16, 32)   128         conv2d_transpose_1[0][0]         
__________________________________________________________________________________________________
batch_normalization_21 (BatchNo (None, 16, 16, 32)   128         conv2d_19[0][0]                  
__________________________________________________________________________________________________
add_12 (Add)                    (None, 16, 16, 32)   0           batch_normalization_19[0][0]     
                                                                 batch_normalization_20[0][0]     
__________________________________________________________________________________________________
outer_product2d_19 (OuterProduc (None, 16, 16, 320)  0           batch_normalization_21[0][0]     
                                                                 input_2[0][0]                    
__________________________________________________________________________________________________
activation_17 (Activation)      (None, 16, 16, 32)   0           add_12[0][0]                     
__________________________________________________________________________________________________
conv2d_20 (Conv2D)              (None, 16, 16, 32)   92192       outer_product2d_19[0][0]         
__________________________________________________________________________________________________
add_13 (Add)                    (None, 16, 16, 32)   0           activation_17[0][0]              
                                                                 batch_normalization_21[0][0]     
__________________________________________________________________________________________________
batch_normalization_22 (BatchNo (None, 16, 16, 32)   128         conv2d_20[0][0]                  
__________________________________________________________________________________________________
activation_18 (Activation)      (None, 16, 16, 32)   0           add_13[0][0]                     
__________________________________________________________________________________________________
outer_product2d_20 (OuterProduc (None, 16, 16, 320)  0           batch_normalization_22[0][0]     
                                                                 input_2[0][0]                    
__________________________________________________________________________________________________
add_14 (Add)                    (None, 16, 16, 32)   0           activation_18[0][0]              
                                                                 batch_normalization_22[0][0]     
__________________________________________________________________________________________________
conv2d_21 (Conv2D)              (None, 16, 16, 32)   92192       outer_product2d_20[0][0]         
__________________________________________________________________________________________________
activation_19 (Activation)      (None, 16, 16, 32)   0           add_14[0][0]                     
__________________________________________________________________________________________________
batch_normalization_23 (BatchNo (None, 16, 16, 32)   128         conv2d_21[0][0]                  
__________________________________________________________________________________________________
add_15 (Add)                    (None, 16, 16, 32)   0           activation_19[0][0]              
                                                                 batch_normalization_23[0][0]     
__________________________________________________________________________________________________
activation_20 (Activation)      (None, 16, 16, 32)   0           add_15[0][0]                     
__________________________________________________________________________________________________
outer_product2d_21 (OuterProduc (None, 16, 16, 320)  0           activation_20[0][0]              
                                                                 input_2[0][0]                    
__________________________________________________________________________________________________
conv2d_transpose_2 (Conv2DTrans (None, 32, 32, 16)   46096       outer_product2d_21[0][0]         
__________________________________________________________________________________________________
batch_normalization_24 (BatchNo (None, 32, 32, 16)   64          conv2d_transpose_2[0][0]         
__________________________________________________________________________________________________
activation_21 (Activation)      (None, 32, 32, 16)   0           batch_normalization_24[0][0]     
__________________________________________________________________________________________________
outer_product2d_22 (OuterProduc (None, 32, 32, 160)  0           activation_21[0][0]              
                                                                 input_2[0][0]                    
__________________________________________________________________________________________________
conv2d_22 (Conv2D)              (None, 32, 32, 16)   23056       outer_product2d_22[0][0]         
__________________________________________________________________________________________________
batch_normalization_26 (BatchNo (None, 32, 32, 16)   64          conv2d_22[0][0]                  
__________________________________________________________________________________________________
outer_product2d_23 (OuterProduc (None, 32, 32, 160)  0           batch_normalization_26[0][0]     
                                                                 input_2[0][0]                    
__________________________________________________________________________________________________
conv2d_transpose_3 (Conv2DTrans (None, 32, 32, 16)   528         activation_20[0][0]              
__________________________________________________________________________________________________
conv2d_23 (Conv2D)              (None, 32, 32, 16)   23056       outer_product2d_23[0][0]         
__________________________________________________________________________________________________
batch_normalization_25 (BatchNo (None, 32, 32, 16)   64          conv2d_transpose_3[0][0]         
__________________________________________________________________________________________________
batch_normalization_27 (BatchNo (None, 32, 32, 16)   64          conv2d_23[0][0]                  
__________________________________________________________________________________________________
add_16 (Add)                    (None, 32, 32, 16)   0           batch_normalization_25[0][0]     
                                                                 batch_normalization_26[0][0]     
__________________________________________________________________________________________________
outer_product2d_24 (OuterProduc (None, 32, 32, 160)  0           batch_normalization_27[0][0]     
                                                                 input_2[0][0]                    
__________________________________________________________________________________________________
activation_22 (Activation)      (None, 32, 32, 16)   0           add_16[0][0]                     
__________________________________________________________________________________________________
conv2d_24 (Conv2D)              (None, 32, 32, 16)   23056       outer_product2d_24[0][0]         
__________________________________________________________________________________________________
add_17 (Add)                    (None, 32, 32, 16)   0           activation_22[0][0]              
                                                                 batch_normalization_27[0][0]     
__________________________________________________________________________________________________
batch_normalization_28 (BatchNo (None, 32, 32, 16)   64          conv2d_24[0][0]                  
__________________________________________________________________________________________________
activation_23 (Activation)      (None, 32, 32, 16)   0           add_17[0][0]                     
__________________________________________________________________________________________________
outer_product2d_25 (OuterProduc (None, 32, 32, 160)  0           batch_normalization_28[0][0]     
                                                                 input_2[0][0]                    
__________________________________________________________________________________________________
add_18 (Add)                    (None, 32, 32, 16)   0           activation_23[0][0]              
                                                                 batch_normalization_28[0][0]     
__________________________________________________________________________________________________
conv2d_25 (Conv2D)              (None, 32, 32, 16)   23056       outer_product2d_25[0][0]         
__________________________________________________________________________________________________
activation_24 (Activation)      (None, 32, 32, 16)   0           add_18[0][0]                     
__________________________________________________________________________________________________
batch_normalization_29 (BatchNo (None, 32, 32, 16)   64          conv2d_25[0][0]                  
__________________________________________________________________________________________________
add_19 (Add)                    (None, 32, 32, 16)   0           activation_24[0][0]              
                                                                 batch_normalization_29[0][0]     
__________________________________________________________________________________________________
activation_25 (Activation)      (None, 32, 32, 16)   0           add_19[0][0]                     
__________________________________________________________________________________________________
outer_product2d_26 (OuterProduc (None, 32, 32, 160)  0           activation_25[0][0]              
                                                                 input_2[0][0]                    
__________________________________________________________________________________________________
conv2d_26 (Conv2D)              (None, 32, 32, 3)    12003       outer_product2d_26[0][0]         
__________________________________________________________________________________________________
conv2d_27 (Conv2D)              (None, 32, 32, 3)    12          conv2d_26[0][0]                  
__________________________________________________________________________________________________
activation_26 (Activation)      (None, 32, 32, 3)    0           conv2d_27[0][0]                  
==================================================================================================
Total params: 2,913,935
Trainable params: 2,912,015
Non-trainable params: 1,920
__________________________________________________________________________________________________
Discriminator Summary
_________________________________________________________________
Layer (type)                 Output Shape              Param #   
=================================================================
lambda (Lambda)              (None, 32, 32, 3)         0         
_________________________________________________________________
conv2d_28 (Conv2D)           (None, 32, 32, 8)         392       
_________________________________________________________________
max_pooling2d (MaxPooling2D) (None, 16, 16, 8)         0         
_________________________________________________________________
leaky_re_lu (LeakyReLU)      (None, 16, 16, 8)         0         
_________________________________________________________________
conv2d_29 (Conv2D)           (None, 16, 16, 16)        2064      
_________________________________________________________________
batch_normalization_30 (Batc (None, 16, 16, 16)        64        
_________________________________________________________________
max_pooling2d_1 (MaxPooling2 (None, 8, 8, 16)          0         
_________________________________________________________________
leaky_re_lu_1 (LeakyReLU)    (None, 8, 8, 16)          0         
_________________________________________________________________
conv2d_30 (Conv2D)           (None, 8, 8, 32)          8224      
_________________________________________________________________
batch_normalization_31 (Batc (None, 8, 8, 32)          128       
_________________________________________________________________
max_pooling2d_2 (MaxPooling2 (None, 4, 4, 32)          0         
_________________________________________________________________
leaky_re_lu_2 (LeakyReLU)    (None, 4, 4, 32)          0         
_________________________________________________________________
flatten (Flatten)            (None, 512)               0         
_________________________________________________________________
dense (Dense)                (None, 1)                 513       
=================================================================
Total params: 22,674
Trainable params: 11,289
Non-trainable params: 11,385
_________________________________________________________________
Frozen Discriminator Summary
_________________________________________________________________
Layer (type)                 Output Shape              Param #   
=================================================================
lambda_input (InputLayer)    (None, 32, 32, 3)         0         
_________________________________________________________________
lambda (Lambda)              (None, 32, 32, 3)         0         
_________________________________________________________________
conv2d_28 (Conv2D)           (None, 32, 32, 8)         392       
_________________________________________________________________
max_pooling2d (MaxPooling2D) (None, 16, 16, 8)         0         
_________________________________________________________________
leaky_re_lu (LeakyReLU)      (None, 16, 16, 8)         0         
_________________________________________________________________
conv2d_29 (Conv2D)           (None, 16, 16, 16)        2064      
_________________________________________________________________
batch_normalization_30 (Batc (None, 16, 16, 16)        64        
_________________________________________________________________
max_pooling2d_1 (MaxPooling2 (None, 8, 8, 16)          0         
_________________________________________________________________
leaky_re_lu_1 (LeakyReLU)    (None, 8, 8, 16)          0         
_________________________________________________________________
conv2d_30 (Conv2D)           (None, 8, 8, 32)          8224      
_________________________________________________________________
batch_normalization_31 (Batc (None, 8, 8, 32)          128       
_________________________________________________________________
max_pooling2d_2 (MaxPooling2 (None, 4, 4, 32)          0         
_________________________________________________________________
leaky_re_lu_2 (LeakyReLU)    (None, 4, 4, 32)          0         
_________________________________________________________________
flatten (Flatten)            (None, 512)               0         
_________________________________________________________________
dense (Dense)                (None, 1)                 513       
=================================================================
Total params: 11,385
Trainable params: 0
Non-trainable params: 11,385
_________________________________________________________________
Classifier Summary
__________________________________________________________________________________________________
Layer (type)                    Output Shape         Param #     Connected to                     
==================================================================================================
input_1 (InputLayer)            (None, 32, 32, 3)    0                                            
__________________________________________________________________________________________________
subtract__mean (Subtract_Mean)  (None, 32, 32, 3)    3072        input_1[0][0]                    
__________________________________________________________________________________________________
conv2d (Conv2D)                 (None, 32, 32, 16)   432         subtract__mean[0][0]             
__________________________________________________________________________________________________
batch_normalization (BatchNorma (None, 32, 32, 16)   64          conv2d[0][0]                     
__________________________________________________________________________________________________
activation (Activation)         (None, 32, 32, 16)   0           batch_normalization[0][0]        
__________________________________________________________________________________________________
conv2d_1 (Conv2D)               (None, 32, 32, 16)   2304        activation[0][0]                 
__________________________________________________________________________________________________
batch_normalization_1 (BatchNor (None, 32, 32, 16)   64          conv2d_1[0][0]                   
__________________________________________________________________________________________________
activation_1 (Activation)       (None, 32, 32, 16)   0           batch_normalization_1[0][0]      
__________________________________________________________________________________________________
conv2d_2 (Conv2D)               (None, 32, 32, 16)   2304        activation_1[0][0]               
__________________________________________________________________________________________________
batch_normalization_2 (BatchNor (None, 32, 32, 16)   64          conv2d_2[0][0]                   
__________________________________________________________________________________________________
add (Add)                       (None, 32, 32, 16)   0           activation[0][0]                 
                                                                 batch_normalization_2[0][0]      
__________________________________________________________________________________________________
activation_2 (Activation)       (None, 32, 32, 16)   0           add[0][0]                        
__________________________________________________________________________________________________
conv2d_3 (Conv2D)               (None, 32, 32, 16)   2304        activation_2[0][0]               
__________________________________________________________________________________________________
batch_normalization_3 (BatchNor (None, 32, 32, 16)   64          conv2d_3[0][0]                   
__________________________________________________________________________________________________
activation_3 (Activation)       (None, 32, 32, 16)   0           batch_normalization_3[0][0]      
__________________________________________________________________________________________________
conv2d_4 (Conv2D)               (None, 32, 32, 16)   2304        activation_3[0][0]               
__________________________________________________________________________________________________
batch_normalization_4 (BatchNor (None, 32, 32, 16)   64          conv2d_4[0][0]                   
__________________________________________________________________________________________________
add_1 (Add)                     (None, 32, 32, 16)   0           activation_2[0][0]               
                                                                 batch_normalization_4[0][0]      
__________________________________________________________________________________________________
activation_4 (Activation)       (None, 32, 32, 16)   0           add_1[0][0]                      
__________________________________________________________________________________________________
conv2d_5 (Conv2D)               (None, 32, 32, 16)   2304        activation_4[0][0]               
__________________________________________________________________________________________________
batch_normalization_5 (BatchNor (None, 32, 32, 16)   64          conv2d_5[0][0]                   
__________________________________________________________________________________________________
activation_5 (Activation)       (None, 32, 32, 16)   0           batch_normalization_5[0][0]      
__________________________________________________________________________________________________
conv2d_6 (Conv2D)               (None, 32, 32, 16)   2304        activation_5[0][0]               
__________________________________________________________________________________________________
batch_normalization_6 (BatchNor (None, 32, 32, 16)   64          conv2d_6[0][0]                   
__________________________________________________________________________________________________
add_2 (Add)                     (None, 32, 32, 16)   0           activation_4[0][0]               
                                                                 batch_normalization_6[0][0]      
__________________________________________________________________________________________________
activation_6 (Activation)       (None, 32, 32, 16)   0           add_2[0][0]                      
__________________________________________________________________________________________________
conv2d_7 (Conv2D)               (None, 32, 32, 16)   2304        activation_6[0][0]               
__________________________________________________________________________________________________
batch_normalization_7 (BatchNor (None, 32, 32, 16)   64          conv2d_7[0][0]                   
__________________________________________________________________________________________________
activation_7 (Activation)       (None, 32, 32, 16)   0           batch_normalization_7[0][0]      
__________________________________________________________________________________________________
conv2d_8 (Conv2D)               (None, 32, 32, 16)   2304        activation_7[0][0]               
__________________________________________________________________________________________________
batch_normalization_8 (BatchNor (None, 32, 32, 16)   64          conv2d_8[0][0]                   
__________________________________________________________________________________________________
add_3 (Add)                     (None, 32, 32, 16)   0           activation_6[0][0]               
                                                                 batch_normalization_8[0][0]      
__________________________________________________________________________________________________
activation_8 (Activation)       (None, 32, 32, 16)   0           add_3[0][0]                      
__________________________________________________________________________________________________
conv2d_9 (Conv2D)               (None, 32, 32, 16)   2304        activation_8[0][0]               
__________________________________________________________________________________________________
batch_normalization_9 (BatchNor (None, 32, 32, 16)   64          conv2d_9[0][0]                   
__________________________________________________________________________________________________
activation_9 (Activation)       (None, 32, 32, 16)   0           batch_normalization_9[0][0]      
__________________________________________________________________________________________________
conv2d_10 (Conv2D)              (None, 32, 32, 16)   2304        activation_9[0][0]               
__________________________________________________________________________________________________
batch_normalization_10 (BatchNo (None, 32, 32, 16)   64          conv2d_10[0][0]                  
__________________________________________________________________________________________________
add_4 (Add)                     (None, 32, 32, 16)   0           activation_8[0][0]               
                                                                 batch_normalization_10[0][0]     
__________________________________________________________________________________________________
activation_10 (Activation)      (None, 32, 32, 16)   0           add_4[0][0]                      
__________________________________________________________________________________________________
conv2d_11 (Conv2D)              (None, 16, 16, 32)   4608        activation_10[0][0]              
__________________________________________________________________________________________________
batch_normalization_11 (BatchNo (None, 16, 16, 32)   128         conv2d_11[0][0]                  
__________________________________________________________________________________________________
activation_11 (Activation)      (None, 16, 16, 32)   0           batch_normalization_11[0][0]     
__________________________________________________________________________________________________
conv2d_13 (Conv2D)              (None, 16, 16, 32)   512         activation_10[0][0]              
__________________________________________________________________________________________________
conv2d_12 (Conv2D)              (None, 16, 16, 32)   9216        activation_11[0][0]              
__________________________________________________________________________________________________
batch_normalization_13 (BatchNo (None, 16, 16, 32)   128         conv2d_13[0][0]                  
__________________________________________________________________________________________________
batch_normalization_12 (BatchNo (None, 16, 16, 32)   128         conv2d_12[0][0]                  
__________________________________________________________________________________________________
add_5 (Add)                     (None, 16, 16, 32)   0           batch_normalization_13[0][0]     
                                                                 batch_normalization_12[0][0]     
__________________________________________________________________________________________________
activation_12 (Activation)      (None, 16, 16, 32)   0           add_5[0][0]                      
__________________________________________________________________________________________________
conv2d_14 (Conv2D)              (None, 16, 16, 32)   9216        activation_12[0][0]              
__________________________________________________________________________________________________
batch_normalization_14 (BatchNo (None, 16, 16, 32)   128         conv2d_14[0][0]                  
__________________________________________________________________________________________________
activation_13 (Activation)      (None, 16, 16, 32)   0           batch_normalization_14[0][0]     
__________________________________________________________________________________________________
conv2d_15 (Conv2D)              (None, 16, 16, 32)   9216        activation_13[0][0]              
__________________________________________________________________________________________________
batch_normalization_15 (BatchNo (None, 16, 16, 32)   128         conv2d_15[0][0]                  
__________________________________________________________________________________________________
add_6 (Add)                     (None, 16, 16, 32)   0           activation_12[0][0]              
                                                                 batch_normalization_15[0][0]     
__________________________________________________________________________________________________
activation_14 (Activation)      (None, 16, 16, 32)   0           add_6[0][0]                      
__________________________________________________________________________________________________
conv2d_16 (Conv2D)              (None, 16, 16, 32)   9216        activation_14[0][0]              
__________________________________________________________________________________________________
batch_normalization_16 (BatchNo (None, 16, 16, 32)   128         conv2d_16[0][0]                  
__________________________________________________________________________________________________
activation_15 (Activation)      (None, 16, 16, 32)   0           batch_normalization_16[0][0]     
__________________________________________________________________________________________________
conv2d_17 (Conv2D)              (None, 16, 16, 32)   9216        activation_15[0][0]              
__________________________________________________________________________________________________
batch_normalization_17 (BatchNo (None, 16, 16, 32)   128         conv2d_17[0][0]                  
__________________________________________________________________________________________________
add_7 (Add)                     (None, 16, 16, 32)   0           activation_14[0][0]              
                                                                 batch_normalization_17[0][0]     
__________________________________________________________________________________________________
activation_16 (Activation)      (None, 16, 16, 32)   0           add_7[0][0]                      
__________________________________________________________________________________________________
conv2d_18 (Conv2D)              (None, 16, 16, 32)   9216        activation_16[0][0]              
__________________________________________________________________________________________________
batch_normalization_18 (BatchNo (None, 16, 16, 32)   128         conv2d_18[0][0]                  
__________________________________________________________________________________________________
activation_17 (Activation)      (None, 16, 16, 32)   0           batch_normalization_18[0][0]     
__________________________________________________________________________________________________
conv2d_19 (Conv2D)              (None, 16, 16, 32)   9216        activation_17[0][0]              
__________________________________________________________________________________________________
batch_normalization_19 (BatchNo (None, 16, 16, 32)   128         conv2d_19[0][0]                  
__________________________________________________________________________________________________
add_8 (Add)                     (None, 16, 16, 32)   0           activation_16[0][0]              
                                                                 batch_normalization_19[0][0]     
__________________________________________________________________________________________________
activation_18 (Activation)      (None, 16, 16, 32)   0           add_8[0][0]                      
__________________________________________________________________________________________________
conv2d_20 (Conv2D)              (None, 16, 16, 32)   9216        activation_18[0][0]              
__________________________________________________________________________________________________
batch_normalization_20 (BatchNo (None, 16, 16, 32)   128         conv2d_20[0][0]                  
__________________________________________________________________________________________________
activation_19 (Activation)      (None, 16, 16, 32)   0           batch_normalization_20[0][0]     
__________________________________________________________________________________________________
conv2d_21 (Conv2D)              (None, 16, 16, 32)   9216        activation_19[0][0]              
__________________________________________________________________________________________________
batch_normalization_21 (BatchNo (None, 16, 16, 32)   128         conv2d_21[0][0]                  
__________________________________________________________________________________________________
add_9 (Add)                     (None, 16, 16, 32)   0           activation_18[0][0]              
                                                                 batch_normalization_21[0][0]     
__________________________________________________________________________________________________
activation_20 (Activation)      (None, 16, 16, 32)   0           add_9[0][0]                      
__________________________________________________________________________________________________
conv2d_22 (Conv2D)              (None, 8, 8, 64)     18432       activation_20[0][0]              
__________________________________________________________________________________________________
batch_normalization_22 (BatchNo (None, 8, 8, 64)     256         conv2d_22[0][0]                  
__________________________________________________________________________________________________
activation_21 (Activation)      (None, 8, 8, 64)     0           batch_normalization_22[0][0]     
__________________________________________________________________________________________________
conv2d_24 (Conv2D)              (None, 8, 8, 64)     2048        activation_20[0][0]              
__________________________________________________________________________________________________
conv2d_23 (Conv2D)              (None, 8, 8, 64)     36864       activation_21[0][0]              
__________________________________________________________________________________________________
batch_normalization_24 (BatchNo (None, 8, 8, 64)     256         conv2d_24[0][0]                  
__________________________________________________________________________________________________
batch_normalization_23 (BatchNo (None, 8, 8, 64)     256         conv2d_23[0][0]                  
__________________________________________________________________________________________________
add_10 (Add)                    (None, 8, 8, 64)     0           batch_normalization_24[0][0]     
                                                                 batch_normalization_23[0][0]     
__________________________________________________________________________________________________
activation_22 (Activation)      (None, 8, 8, 64)     0           add_10[0][0]                     
__________________________________________________________________________________________________
conv2d_25 (Conv2D)              (None, 8, 8, 64)     36864       activation_22[0][0]              
__________________________________________________________________________________________________
batch_normalization_25 (BatchNo (None, 8, 8, 64)     256         conv2d_25[0][0]                  
__________________________________________________________________________________________________
activation_23 (Activation)      (None, 8, 8, 64)     0           batch_normalization_25[0][0]     
__________________________________________________________________________________________________
conv2d_26 (Conv2D)              (None, 8, 8, 64)     36864       activation_23[0][0]              
__________________________________________________________________________________________________
batch_normalization_26 (BatchNo (None, 8, 8, 64)     256         conv2d_26[0][0]                  
__________________________________________________________________________________________________
add_11 (Add)                    (None, 8, 8, 64)     0           activation_22[0][0]              
                                                                 batch_normalization_26[0][0]     
__________________________________________________________________________________________________
activation_24 (Activation)      (None, 8, 8, 64)     0           add_11[0][0]                     
__________________________________________________________________________________________________
conv2d_27 (Conv2D)              (None, 8, 8, 64)     36864       activation_24[0][0]              
__________________________________________________________________________________________________
batch_normalization_27 (BatchNo (None, 8, 8, 64)     256         conv2d_27[0][0]                  
__________________________________________________________________________________________________
activation_25 (Activation)      (None, 8, 8, 64)     0           batch_normalization_27[0][0]     
__________________________________________________________________________________________________
conv2d_28 (Conv2D)              (None, 8, 8, 64)     36864       activation_25[0][0]              
__________________________________________________________________________________________________
batch_normalization_28 (BatchNo (None, 8, 8, 64)     256         conv2d_28[0][0]                  
__________________________________________________________________________________________________
add_12 (Add)                    (None, 8, 8, 64)     0           activation_24[0][0]              
                                                                 batch_normalization_28[0][0]     
__________________________________________________________________________________________________
activation_26 (Activation)      (None, 8, 8, 64)     0           add_12[0][0]                     
__________________________________________________________________________________________________
conv2d_29 (Conv2D)              (None, 8, 8, 64)     36864       activation_26[0][0]              
__________________________________________________________________________________________________
batch_normalization_29 (BatchNo (None, 8, 8, 64)     256         conv2d_29[0][0]                  
__________________________________________________________________________________________________
activation_27 (Activation)      (None, 8, 8, 64)     0           batch_normalization_29[0][0]     
__________________________________________________________________________________________________
conv2d_30 (Conv2D)              (None, 8, 8, 64)     36864       activation_27[0][0]              
__________________________________________________________________________________________________
batch_normalization_30 (BatchNo (None, 8, 8, 64)     256         conv2d_30[0][0]                  
__________________________________________________________________________________________________
add_13 (Add)                    (None, 8, 8, 64)     0           activation_26[0][0]              
                                                                 batch_normalization_30[0][0]     
__________________________________________________________________________________________________
activation_28 (Activation)      (None, 8, 8, 64)     0           add_13[0][0]                     
__________________________________________________________________________________________________
conv2d_31 (Conv2D)              (None, 8, 8, 64)     36864       activation_28[0][0]              
__________________________________________________________________________________________________
batch_normalization_31 (BatchNo (None, 8, 8, 64)     256         conv2d_31[0][0]                  
__________________________________________________________________________________________________
activation_29 (Activation)      (None, 8, 8, 64)     0           batch_normalization_31[0][0]     
__________________________________________________________________________________________________
conv2d_32 (Conv2D)              (None, 8, 8, 64)     36864       activation_29[0][0]              
__________________________________________________________________________________________________
batch_normalization_32 (BatchNo (None, 8, 8, 64)     256         conv2d_32[0][0]                  
__________________________________________________________________________________________________
add_14 (Add)                    (None, 8, 8, 64)     0           activation_28[0][0]              
                                                                 batch_normalization_32[0][0]     
__________________________________________________________________________________________________
activation_30 (Activation)      (None, 8, 8, 64)     0           add_14[0][0]                     
__________________________________________________________________________________________________
average_pooling2d (AveragePooli (None, 1, 1, 64)     0           activation_30[0][0]              
__________________________________________________________________________________________________
flatten (Flatten)               (None, 64)           0           average_pooling2d[0][0]          
__________________________________________________________________________________________________
dense (Dense)                   (None, 10)           650         flatten[0][0]                    
==================================================================================================
Total params: 939,348
Trainable params: 466,906
Non-trainable params: 472,442
__________________________________________________________________________________________________
creating combined model
Combined model:
__________________________________________________________________________________________________
Layer (type)                    Output Shape         Param #     Connected to                     
==================================================================================================
input_3 (InputLayer)            (None, 32, 32, 3)    0                                            
__________________________________________________________________________________________________
input_4 (InputLayer)            (None, 10)           0                                            
__________________________________________________________________________________________________
model_G (Model)                 (None, 32, 32, 3)    2913935     input_3[0][0]                    
                                                                 input_4[0][0]                    
__________________________________________________________________________________________________
model (Model)                   (None, 10)           472442      model_G[1][0]                    
__________________________________________________________________________________________________
frozen_discriminator (Model)    (None, 1)            11385       model_G[1][0]                    
__________________________________________________________________________________________________
aux_output (Reshape)            (None, 32, 32, 3)    0           model_G[1][0]                    
__________________________________________________________________________________________________
main_output (Reshape)           (None, 10)           0           model[1][0]                      
__________________________________________________________________________________________________
disc_output (Reshape)           (None, 1)            0           frozen_discriminator[1][0]       
==================================================================================================
Total params: 3,397,762
Trainable params: 2,912,015
Non-trainable params: 485,747
__________________________________________________________________________________________________
['loss', 'aux_output_loss', 'main_output_loss', 'disc_output_loss', 'main_output_target_first', 'main_output_orig_second_conditional', 'main_output_orig_second_unconditional']
…
